…
guage":"python","editOnDblClick":false,"completionKey":"TAB","completionSupport":true},"colWidth":12,"editorMode":"ace/mode/python","fontSize":9,"results":{},"enabled":true},"settings":{"params":{},"forms":{}},"results":{"code":"SUCCESS","msg":[{"type":"TEXT","data":"__________________________________________________________________________________________________\nLayer (type)                    Output Shape         Param #     Connected to                     \n==================================================================================================\ninput_1 (InputLayer)            (None, 128, 128, 3)  0                                            \n__________________________________________________________________________________________________\nconv2d (Conv2D)                 (None, 128, 128, 16) 448         input_1[0][0]                    \n__________________________________________________________________________________________________\nactivation (Activation)         (None, 128, 128, 16) 0           conv2d[0][0]                     \n__________________________________________________________________________________________________\nconv2d_1 (Conv2D)               (None, 128, 128, 16) 2320        activation[0][0]                 \n__________________________________________________________________________________________________\nactivation_1 (Activation)       (None, 128, 128, 16) 0           conv2d_1[0][0]                   \n__________________________________________________________________________________________________\nmax_pooling2d (MaxPooling2D)    (None, 64, 64, 16)   0           activation_1[0][0]               \n__________________________________________________________________________________________________\nconv2d_2 (Conv2D)               (None, 64, 64, 32)   4640        max_pooling2d[0][0]              \n__________________________________________________________________________________________________\nactivation_2 (Activation)       (None, 64, 64, 32)   0           conv2d_2[0][0]                   \n__________________________________________________________________________________________________\nconv2d_3 (Conv2D)               (None, 64, 64, 32)   9248        activation_2[0][0]               \n__________________________________________________________________________________________________\nactivation_3 (Activation)       (None, 64, 64, 32)   0           conv2d_3[0][0]                   \n__________________________________________________________________________________________________\nmax_pooling2d_1 (MaxPooling2D)  (None, 32, 32, 32)   0           activation_3[0][0]               \n__________________________________________________________________________________________________\nconv2d_4 (Conv2D)               (None, 32, 32, 64)   18496       max_pooling2d_1[0][0]            \n__________________________________________________________________________________________________\nactivation_4 (Activation)       (None, 32, 32, 64)   0           conv2d_4[0][0]                   \n__________________________________________________________________________________________________\nconv2d_5 (Conv2D)               (None, 32, 32, 64)   36928       activation_4[0][0]               \n__________________________________________________________________________________________________\nactivation_5 (Activation)       (None, 32, 32, 64)   0           conv2d_5[0][0]                   \n__________________________________________________________________________________________________\nmax_pooling2d_2 (MaxPooling2D)  (None, 16, 16, 64)   0           activation_5[0][0]               \n__________________________________________________________________________________________________\nconv2d_6 (Conv2D)               (None, 16, 16, 128)  73856       max_pooling2d_2[0][0]            \n__________________________________________________________________________________________________\nactivation_6 (Activation)       (None, 16, 16, 128)  0           conv2d_6[0][0]                   \n__________________________________________________________________________________________________\nconv2d_7 (Conv2D)               (None, 16, 16, 128)  147584      activation_6[0][0]               \n__________________________________________________________________________________________________\nactivation_7 (Activation)       (None, 16, 16, 128)  0           conv2d_7[0][0]                   \n__________________________________________________________________________________________________\nmax_pooling2d_3 (MaxPooling2D)  (None, 8, 8, 128)    0           activation_7[0][0]               \n__________________________________________________________________________________________________\nconv2d_8 (Conv2D)               (None, 8, 8, 256)    295168      max_pooling2d_3[0][0]            \n__________________________________________________________________________________________________\nactivation_8 (Activation)       (None, 8, 8, 256)    0           conv2d_8[0][0]                   \n__________________________________________________________________________________________________\nconv2d_9 (Conv2D)               (None, 8, 8, 256)    590080      activation_8[0][0]               \n__________________________________________________________________________________________________\nactivation_9 (Activation)       (None, 8, 8, 256)    0           conv2d_9[0][0]                   \n__________________________________________________________________________________________________\nconv2d_transpose (Conv2DTranspo (None, 16, 16, 128)  131200      activation_9[0][0]               \n__________________________________________________________________________________________________\nconcatenate (Concatenate)       (None, 16, 16, 256)  0           activation_7[0][0]               \n                                                                 conv2d_transpose[0][0]           \n__________________________________________________________________________________________________\nactivation_10 (Activation)      (None, 16, 16, 256)  0           concatenate[0][0]                \n__________________________________________________________________________________________________\nconv2d_10 (Conv2D)              (None, 16, 16, 128)  295040      activation_10[0][0]              \n__________________________________________________________________________________________________\nactivation_11 (Activation)      (None, 16, 16, 128)  0           conv2d_10[0][0]                  \n__________________________________________________________________________________________________\nconv2d_11 (Conv2D)              (None, 16, 16, 128)  147584      activation_11[0][0]              \n__________________________________________________________________________________________________\nactivation_12 (Activation)      (None, 16, 16, 128)  0           conv2d_11[0][0]                  \n__________________________________________________________________________________________________\nconv2d_transpose_1 (Conv2DTrans (None, 32, 32, 64)   32832       activation_12[0][0]              \n__________________________________________________________________________________________________\nconcatenate_1 (Concatenate)     (None, 32, 32, 128)  0           activation_5[0][0]               \n                                                                 conv2d_transpose_1[0][0]         \n__________________________________________________________________________________________________\nactivation_13 (Activation)      (None, 32, 32, 128)  0           concatenate_1[0][0]              \n__________________________________________________________________________________________________\nconv2d_12 (Conv2D)              (None, 32, 32, 64)   73792       activation_13[0][0]              \n__________________________________________________________________________________________________\nactivation_14 (Activation)      (None, 32, 32, 64)   0           conv2d_12[0][0]                  \n__________________________________________________________________________________________________\nconv2d_13 (Conv2D)              (None, 32, 32, 64)   36928       activation_14[0][0]              \n__________________________________________________________________________________________________\nactivation_15 (Activation)      (None, 32, 32, 64)   0           conv2d_13[0][0]                  \n__________________________________________________________________________________________________\nconv2d_transpose_2 (Conv2DTrans (None, 64, 64, 32)   8224        activation_15[0][0]              \n__________________________________________________________________________________________________\nconcatenate_2 (Concatenate)     (None, 64, 64, 64)   0           activation_3[0][0]               \n                                                                 conv2d_transpose_2[0][0]         \n__________________________________________________________________________________________________\nactivation_16 (Activation)      (None, 64, 64, 64)   0           concatenate_2[0][0]              \n__________________________________________________________________________________________________\nconv2d_14 (Conv2D)              (None, 64, 64, 32)   18464       activation_16[0][0]              \n__________________________________________________________________________________________________\nactivation_17 (Activation)      (None, 64, 64, 32)   0           conv2d_14[0][0]                  \n__________________________________________________________________________________________________\nconv2d_15 (Conv2D)              (None, 64, 64, 32)   9248        activation_17[0][0]              \n__________________________________________________________________________________________________\nactivation_18 (Activation)      (None, 64, 64, 32)   0           conv2d_15[0][0]                  \n__________________________________________________________________________________________________\nconv2d_transpose_3 (Conv2DTrans (None, 128, 128, 16) 2064        activation_18[0][0]              \n__________________________________________________________________________________________________\nconcatenate_3 (Concatenate)     (None, 128, 128, 32) 0           activation_1[0][0]               \n                                                                 conv2d_transpose_3[0][0]         \n__________________________________________________________________________________________________\nactivation_19 (Activation)      (None, 128, 128, 32) 0           concatenate_3[0][0]              \n__________________________________________________________________________________________________\nconv2d_16 (Conv2D)              (None, 128, 128, 16) 4624        activation_19[0][0]              \n__________________________________________________________________________________________________\nactivation_20 (Activation)      (None, 128, 128, 16) 0           conv2d_16[0][0]                  \n__________________________________________________________________________________________________\nconv2d_17 (Conv2D)              (None, 128, 128, 16) 2320        activation_20[0][0]              \n__________________________________________________________________________________________________\nactivation_21 (Activation)      (None, 128, 128, 16) 0           conv2d_17[0][0]                  \n__________________________________________________________________________________________________\nconv2d_18 (Conv2D)              (None, 128, 128, 1)  17          activation_21[0][0]              \n==================================================================================================\nTotal params: 1,941,105\nTrainable params: 1,941,105\nNon-trainable params: 0\n__________________________________________________________________________________________________\n"}]},"apps":[],"jobName":"paragraph_1560906913549_1016107225","id":"20190612
…
